checkpoint_pretrained.pth (torch, 55319 bytes, 6 tensors)

fc1.weight f4 [128, 37]
0	0xbda4dfaf	-0.08050477
1	0x3e31d26c	0.17365426
2	0xbf290733	-0.6602661
3	0xbe13524d	-0.14386864
4	0xbe40abad	-0.18815489
5	0xbe9729f4	-0.29524195
6	0xbe016f7d	-0.12640186
7	0x3ea99c86	0.3312723
8	0x3c9aacbc	0.018881194
9	0xbdd05399	-0.10172195
10	0xbcf4f5c2	-0.029902343
11	0xbe51c315	-0.20484574
12	0xbef645d1	-0.4810014
13	0xbe2cf64e	-0.16890833
14	0xbf005a57	-0.5013785
15	0xbed5b5d1	-0.41740277
16	0x3df78343	0.12085583
17	0x3dc8f0e0	0.09811568
18	0xbd5b6cb5	-0.053570468
19	0xbd5a9950	-0.053368866
20	0xbd50ec7c	-0.05100678
21	0x3d0fe042	0.03512598
22	0xbea82a7f	-0.32844922
23	0x3e80e36e	0.25173515
24	0xbe1aee4d	-0.15129967
25	0x3ddf0dca	0.10891302
26	0xbc73fec1	-0.014892281
27	0xbea3d154	-0.31995642
28	0xbe0a6f31	-0.13518979
29	0x3c2de952	0.01061471
30	0xbd76251a	-0.060093977
31	0xbe175482	-0.14778331
32	0xbe237f49	-0.15966524
33	0x3d16df3c	0.036833987
34	0xbf2b07a9	-0.66808563
35	0xbe680ed1	-0.22661902
36	0xbd7529d5	-0.059854347
37	0x3e6eee95	0.233332
38	0x3ddd4e49	0.10805947
39	0x3db8e4c2	0.09028007
40	0x3d6052f7	0.05476662
41	0xbeeceb45	-0.46273246
42	0x3df1de6e	0.11810003
43	0xbc4c8a68	-0.0124841705
44	0xbe446602	-0.19179538
45	0x3d8fbbea	0.07018264
46	0x3dd19420	0.10233331
47	0x3e012195	0.12610467
48	0x3e30634b	0.17225377
49	0xbda1a09e	-0.078919634
50	0x3dc158d9	0.094407745
51	0xbe412aee	-0.18864033
52	0x3d1eadb4	0.038739875
53	0x3d1084e4	0.035282984
54	0x3e13566a	0.14388433
55	0x3e4cf2fa	0.20014563
56	0x3d7bdcd9	0.061489914
57	0xbdf4e147	-0.11957031
58	0x3d8dbc1e	0.06920646
59	0xbd9407be	-0.07228039
60	0x3e5f247b	0.2179126
61	0x3e92cc22	0.28671366
62	0x3d7010ef	0.0586099
63	0x3dae36df	0.085065596
64	0x3dd047d4	0.1016995
65	0xbdc54d6c	-0.09633908
66	0xbea8f8c7	-0.33002302
67	0xbd8c1fcb	-0.068420015
68	0x3e5024d1	0.20326544
69	0x3eac5c5a	0.3366421
70	0x3cff3651	0.03115383
71	0xbdafb86b	-0.08580097
72	0x3e3159f1	0.17319466
73	0xbca6dcf0	-0.020369023
74	0x3e1bf0ea	0.1522862
75	0x3dac2afa	0.08406635
76	0x3eac848c	0.33694875
77	0xbe8098f6	-0.251167
78	0x3ee06af9	0.43831614
79	0xbe830435	-0.25589147
80	0x3d0d4456	0.034489
81	0x3e1e13fe	0.15437314
82	0x3e1b5939	0.15170754
83	0xbe6e1e97	-0.23253857
84	0x3d898692	0.067151204
85	0x3c4b4a69	0.0124078775
86	0x3da69d45	0.081354655
87	0xbe1999eb	-0.15000121
88	0x3e37aa29	0.17936005
89	0x3e69038f	0.22755264
90	0x3d8629bf	0.06550931
91	0x3be22927	0.0069018784
92	0xbe0368f6	-0.12833008
93	0xbeb04280	-0.34425735
94	0x3dd4d38e	0.10391913
95	0x3d2e3b8e	0.042537265
96	0x3d3c2bdf	0.045940276
97	0xbe393971	-0.18088318
98	0xbcd50b37	-0.026006324
99	0xbe366167	-0.17810594
100	0x3ed1ebb0	0.41000128
101	0x3e08eaa4	0.13370758
102	0xbe116477	-0.1419848
103	0x3de9dc65	0.1141899
104	0xbea3ea14	-0.32014525
105	0x3d45b359	0.048266742
106	0x3d0cc8fa	0.034371354
107	0xbe10738a	-0.14106575
108	0x3e179bbe	0.14805505
109	0x3ca68e55	0.020331541
110	0xbd5d5f13	-0.054045748
111	0x3dee7fb9	0.11645455
112	0xbef4ceb7	-0.4781396
113	0x3e48c67e	0.19606969
114	0x3e0a5ffd	0.13513179
115	0xbc7044b9	-0.014664822
116	0xbe35b469	-0.17744602
117	0x3c95916f	0.018257825
118	0xbdf86563	-0.12128713
119	0x3e63a191	0.22229601
120	0x3e70cf16	0.23516497
121	0x3e21afb3	0.1578968
122	0xbe35e753	-0.17764024
123	0xbe437c04	-0.19090277
124	0xbe71bbc0	-0.23606777
125	0xbf2f06e3	-0.68369883
126	0x3e131958	0.14365137
127	0xbe091aaf	-0.13389085
128	0xbeb740d6	-0.35791653
129	0xbe7d6d30	-0.24748683
130	0x3e0e2c5e	0.13884112
131	0x3dab825a	0.08374472
132	0xbdcc4483	-0.09974005
133	0xbd73c27f	-0.059511658
134	0xbde16353	-0.11005273
135	0xbed6ef1a	-0.41979295
136	0x3da772cd	0.081761934
137	0xbe078d32	-0.13237455
138	0xbdd95bd4	-0.10613218
139	0x3dca9f75	0.09893695
140	0x3e838017	0.25683662
141	0xbd0a0174	-0.033692792
142	0x3be07689	0.006850068
143	0x3da7133f	0.08157968
144	0xbd834160	-0.06408954
145	0xbe3896a1	-0.1802621
146	0xbdabd7f6	-0.08390801
147	0xbdc6db9c	-0.09709856
148	0xbdc7e81d	-0.09761069
149	0xbe1f52ec	-0.15558976
150	0xbe050963	-0.12991862
151	0xbe3ac0ce	-0.18237612
152	0x3e01898d	0.12650128
153	0xbd5c9f2d	-0.05386274
154	0x3d54821d	0.0518819
155	0x3e0db3cd	0.1383812
156	0xbd5c0b1a	-0.053721525
157	0x3cdd613c	0.027023904
158	0xbd63f2c4	-0.05565144
159	0xbd992952	-0.07478584
160	0x3d9cdd69	0.07659418
161	0xbe784a5b	-0.24247114
162	0xbe9d4c6e	-0.30722374
163	0xbd4d4594	-0.050115183
164	0xbca9d983	-0.0207336
165	0xbe50dd3f	-0.20396899
166	0xbd4b3d54	-0.049619034
167	0x3e3295e0	0.17439985
168	0xbe98d0ed	-0.29846898
169	0x3de36970	0.11104095
170	0x3d630390	0.05542332
171	0x3e2542ad	0.16138716
172	0x3eb490c4	0.35266697
173	0xbe13d07e	-0.14435002
174	0xbe3b20d6	-0.18274245
175	0x3e612adf	0.2198901
176	0x3e862990	0.26203585
177	0x3de15ca6	0.110039994
178	0x3dc33902	0.09532358
179	0xbdc43af0	-0.09581554
180	0xbe81dee6	-0.2536537
181	0xbca0182b	-0.019542774
182	0x3e69a251	0.22815825
183	0x3d66be30	0.05633372
184	0x3c1bbfee	0.009506209
185	0x3d971136	0.073763296
186	0xbe599556	-0.21248373
187	0xbe92d18c	-0.28675497
188	0x3dab7b84	0.08373168
189	0xbd3a8f88	-0.04554704
190	0x3e1d2b88	0.15348637
191	0xbe780f89	-0.24224676
192	0xbdd7c119	-0.10534877
193	0xbe350769	-0.17678608
194	0xbfac30de	-1.3452413
195	0xbe4623aa	-0.19349542
196	0xbd898d70	-0.0671643
197	0xbd89f689	-0.06736476
198	0xbe5d1ee1	-0.2159381
199	0xbdb08901	-0.086198814
200	0xbe114435	-0.14186175
201	0x3daea3db	0.08527347
202	0xbdf718f5	-0.12065307
203	0xbe2ed276	-0.17072472
204	0xbe8476d7	-0.25871918
205	0x3e6ed6f3	0.23324184
206	0xbf056b45	-0.52116805
207	0xbc60b440	-0.01371485
208	0xbe3e353c	-0.18574995
209	0xbf3823a1	-0.71929365
210	0xbd82566d	-0.06364141
211	0xbc49bdbc	-0.012313303
212	0xbe32bfd7	-0.17455994
213	0xbdafcac8	-0.08583599
214	0xbcad4880	-0.021152735
215	0x3d7eeb60	0.06223619
216	0xbd1d6fd1	-0.038436715
217	0xbe1dea25	-0.1542135
218	0xbe5413ba	-0.2071065
219	0xbe03e694	-0.12880927
220	0x3e827d13	0.2548605
221	0x3d9f4014	0.07775894
222	0x3eb10567	0.34574434
223	0xbecdc5fc	-0.40190113
224	0xbedda69c	-0.43291175
225	0xbe0d6498	-0.13807905
226	0xbfabfbb9	-1.3436195
227	0xbde12579	-0.109934755
228	0x3a35ee9a	0.00069401565
229	0x3d88b877	0.06675809
230	0x3e2eedaf	0.17082857
231	0x3dd6fa69	0.10496981
232	0x3e3c8dca	0.18413463
233	0x3c3b2426	0.011422193
234	0x3d1457ef	0.036216673
235	0xbd26dd07	-0.04073813
236	0x3cab2fa8	0.020896748
237	0x3e147155	0.14496358
238	0xbde2f875	-0.11082546
239	0x3b190929	0.0023351407
240	0xbbd04b8c	-0.006356662
241	0x3daef742	0.085432544
242	0x3d8ac137	0.06775134
243	0xbd8b7297	-0.06808966
244	0xbd448035	-0.04797383
245	0xbdcae86f	-0.099076144
246	0xbcf2f4f3	-0.029657817
247	0xbd2a4cea	-0.041577257
248	0xbdb87bd8	-0.09007996
249	0xbca9a48a	-0.020708341
250	0xbe26810e	-0.16260168
251	0x3e57c27d	0.21070285
252	0x3e0c469e	0.13698813
253	0x3d59394e	0.053033166
254	0xbe17de9a	-0.1483101
255	0xbdaeb649	-0.08530862

fc1.bias f4 [128]
0	0xbdb4a27e	-0.088200554
1	0x3e1a6bb7	0.15080152
2	0xbc42ac3d	-0.011881885
3	0xbdc8d3c6	-0.098060176
4	0xbdcad5e4	-0.09904078
5	0xbe559b22	-0.2085996
6	0x3dd04ee5	0.10171298
7	0x3d997536	0.07493059
8	0xbe94d22d	-0.290666
9	0xbdb60357	-0.08887356
10	0xbe6cffd7	-0.2314447
11	0x3b9add8e	0.0047261184
12	0xbdccda00	-0.10002518
13	0xb80955c8	-3.2743235e-05
14	0xbe7c09dd	-0.24613138
15	0xbdde0709	-0.108411856
16	0x3ca56121	0.020187916
17	0xbb837bfe	-0.0040125838
18	0xbdb3ddaa	-0.087825134
19	0x3dbc9d40	0.092096806
20	0xbdbdbbca	-0.092643335
21	0x3cc85b43	0.02445758
22	0x3ddf94ae	0.1091703
23	0xbdba6ff7	-0.09103387
24	0x3e3934d7	0.18086563
25	0x3e171adb	0.14756338
26	0x3e1ab2db	0.1510729
27	0xbe05c221	-0.13062336
28	0x3d7cd5da	0.061727382
29	0xbd685464	-0.056721106
30	0x3df379d1	0.11888469
31	0x3b07dd3f	0.0020731238
32	0xbd6c130d	-0.057635356
33	0xbdcead04	-0.10091594
34	0x3d51088b	0.051033538
35	0xbe81d7ed	-0.2536005
36	0x3e154f1a	0.14580956
37	0x3c92da11	0.017926248
38	0x3d0eda24	0.034876004
39	0x3dadae79	0.08480544
40	0xbd79c3ac	-0.060977623
41	0x3d85912d	0.06521831
42	0x3e1ff727	0.15621625
43	0x3d84fb9c	0.06493303
44	0x3c83628f	0.016038207
45	0xbdc78bd0	-0.09743464
46	0x3e888bc6	0.2666914
47	0xbe44e320	-0.19227266
48	0xbe2dd9a4	-0.16977555
49	0x3d861667	0.06547242
50	0xbc2bf6d4	-0.01049586
51	0x3e0cc0fe	0.13745496
52	0x3dde24a7	0.10846835
53	0x3d85ac07	0.06526952
54	0x3ca3765b	0.019953897
55	0x3d110cae	0.035412483
56	0xbe038292	-0.12842777
57	0x3d65d9b6	0.05611583
58	0xbda147b6	-0.07875006
59	0xbe02e513	-0.12782697
60	0xbe015ad6	-0.12632307
61	0x3e177a5d	0.14792772
62	0x3e0e53bf	0.13899134
63	0xbd8bc5b4	-0.06824818
64	0x3e0e6e98	0.13909376
65	0x3dd231ff	0.10263442
66	0x3de4e43b	0.11176344
67	0x3d2ef171	0.042710725
68	0xbe5ca97d	-0.2154903
69	0xbe6c0563	-0.2304893
70	0x3ca0d976	0.019634943
71	0xbd024840	-0.031807184
72	0x3e0e712d	0.1391036
73	0xbdfc7bcf	-0.12328302
74	0xbd841c4e	-0.06450711
75	0x3a10dd34	0.0005526126
76	0x3e956c22	0.2918406
77	0xbe5c3b21	-0.21506931
78	0x3ec6b087	0.38806555
79	0xbc891ea2	-0.01673824
80	0xbcdcc3bf	-0.026948808
81	0x3d3c2423	0.0459329
82	0xbab7819e	-0.0014000421
83	0xbb6750af	-0.0035295894
84	0xbd0a439c	-0.033755884
85	0x3e6481e0	0.22315168
86	0xbbdcabde	-0.0067343554
87	0xbd5e947d	-0.05434083
88	0xbd1147e4	-0.03546895
89	0xbcc1299d	-0.023579413
90	0x3d4c51fd	0.049882878
91	0xbe18b2f2	-0.14912012
92	0x3d63403f	0.05548119
93	0xbe2fd328	-0.17170393
94	0x3ccedbb6	0.02525125
95	0x3d4df950	0.05028659
96	0xbc93fc6f	-0.018064706
97	0xbe7afe6a	-0.24511114
98	0xbd20ad09	-0.03922752
99	0x3c40e4ed	0.01177333
100	0xbe03a3ea	-0.12855497
101	0xbe5fe6e6	-0.21865425
102	0x3df09e87	0.11748987
103	0x3e126679	0.14296903
104	0xbe249122	-0.16070989
105	0xbe6e8f0a	-0.23296753
106	0xbe047e48	-0.12938797
107	0x3e70f19a	0.23529664
108	0xbc521b8a	-0.012823949
109	0x3d972c68	0.07381517
110	0x3d5a0536	0.053227626
111	0xbda1c1c3	-0.07898285
112	0xba68c049	-0.00088787504
113	0xbe4c09ff	-0.19925688
114	0x3d36df44	0.044646516
115	0x3d8fd70d	0.070234396
116	0xbc1e7cad	-0.00967328
117	0x3e1e636d	0.15467615
118	0xbcc7dcd4	-0.024397291
119	0xbdf7d7bf	-0.12101697
120	0x3d99ac69	0.07503588
121	0x3cc77b5d	0.024350816
122	0xbc7bb78c	-0.015363585
123	0xbe6f4ce7	-0.2336918
124	0xbd887e7e	-0.066647515
125	0x3e00efbf	0.12591456
126	0x3d2b490a	0.041817702
127	0x3d336e04	0.04380609

fc2.weight f4 [64, 128]
0	0xbdb4ace7	-0.08822041
1	0xbdccb41c	-0.09995291
2	0xbda555f2	-0.080730334
3	0x3c8dfb0c	0.017331623
4	0x3d059c22	0.032619603
5	0x3ce07d70	0.027403563
6	0x3cbd9769	0.023143487
7	0x3c05d2fa	0.0081679765
8	0x3c992d76	0.018698435
9	0xba94e2a1	-0.0011359045
10	0x3c8240ba	0.015900005
11	0x3cad1e07	0.021132482
12	0x3d2acb63	0.04169787
13	0xbd9d5767	-0.07682686
14	0xbdaed9c5	-0.0853763
15	0xbba3443e	-0.0049825003
16	0x3b27087a	0.002548723
17	0xbdaa366c	-0.083111614
18	0xbd89240e	-0.0669633
19	0xbdd5b6e2	-0.10435273
20	0x3d8e60bb	0.069520436
21	0x3d274625	0.04083838
22	0xbd6e18d3	-0.058129143
23	0x3c349e2c	0.011024039
24	0xbd13fc7c	-0.03612946
25	0x3d72e9a7	0.05930486
26	0xbda8ed68	-0.08248407
27	0xbdb7827a	-0.08960433
28	0xbd9fcf3a	-0.07803197
29	0x3d96b824	0.07359341
30	0xbd833533	-0.06406631
31	0x3d45f618	0.048330396
32	0xbb15735c	-0.0022804355
33	0xbd59ac73	-0.053142976
34	0xbd87ae2d	-0.06625018
35	0xbd2bcf94	-0.04194601
36	0xbc2e7a78	-0.010649316
37	0xbd359d02	-0.044339187
38	0x3b928b24	0.0044721533
39	0xbcc3fe06	-0.023924839
40	0xbdb53db7	-0.08849662
41	0xbd573f69	-0.052550707
42	0xbd9f4b19	-0.077779956
43	0x3bcf823f	0.006332665
44	0xbbdf1f79	-0.0068091718
45	0xbc492dda	-0.012278998
46	0xbdc0fc1d	-0.09423087
47	0xbddeda4b	-0.1088148
48	0xbd39da74	-0.04537435
49	0xbd973868	-0.073838055
50	0xbe0352ac	-0.12824506
51	0xbdc4800f	-0.09594738
52	0xbdbcc5bf	-0.092174046
53	0xbda128ce	-0.07869111
54	0x3b5c80d8	0.0033646133
55	0x3cdff2c6	0.027337443
56	0x3d292422	0.041294225
57	0xbdf09d46	-0.117487475
58	0x3d5161b2	0.05111856
59	0xba88f754	-0.0010449686
60	0x3d4bc086	0.04974415
61	0xbcb414ab	-0.021982512
62	0x3cee7e6d	0.029113019
63	0xbdfcd872	-0.12345971
64	0x3cea31ab	0.028588137
65	0x3d2170fc	0.03941439
66	0x3ca6c0c9	0.020355599
67	0xbe06d627	-0.1316763
68	0xbd36fceb	-0.044674795
69	0xbd50496d	-0.050851274
70	0x3c570cf0	0.013125643
71	0xbd147062	-0.03623999
72	0x3bd27c40	0.006423503
73	0xbd34a43e	-0.044101946
74	0xbd097124	-0.033555165
75	0x3aae5659	0.001330088
76	0xbdba837d	-0.09107111
77	0xbdad0beb	-0.08449539
78	0x3d08e408	0.033420593
79	0x3d861d71	0.06548584
80	0xbd347bdc	-0.044063434
81	0x3d7d9f8b	0.06191973
82	0x3d5dda2f	0.054163154
83	0xbdaeb256	-0.08530109
84	0xbd31adff	-0.043378826
85	0xbd632a9b	-0.055460554
86	0x3c62867d	0.01382601
87	0xbc197b4b	-0.009367774
88	0xbc46987e	-0.012121318
89	0x3cf82e6f	0.030295579
90	0xbd4a01df	-0.04931819
91	0xbd4c925d	-0.04994427
92	0xbd9ad0de	-0.075593695
93	0xbd6c4a35	-0.057687957
94	0x3d84db94	0.06487194
95	0xbd974a8e	-0.07387267
96	0xbd0f78f8	-0.035027474
97	0x3d2b2ccb	0.041790765
98	0xbd91c9ac	-0.07118544
99	0xbd548a0a	-0.051889457
100	0x3d469e9c	0.048491105
101	0xbd5e82b9	-0.054323886
102	0xbdb28dd6	-0.08718459
103	0xbca2d830	-0.019878477
104	0xbcac1b1d	-0.021009022
105	0x39d1a4ad	0.0003998628
106	0x3cdd5d4d	0.027022028
107	0xbd977a69	-0.07396395
108	0x3cb43ec4	0.022002585
109	0xbdaa6748	-0.083204806
110	0xbb68705e	-0.0035467367
111	0xbd193368	-0.03740254
112	0xbd966f5b	-0.07345458
113	0x3d4615d5	0.048360664
114	0xbdafef6f	-0.0859059
115	0x3c02dda7	0.007987416
116	0x3d10ed52	0.035382576
117	0x3d242143	0.040070783
118	0xbde5b7c6	-0.112166926
119	0xbb7500d9	-0.0037384538
120	0x3d3b72fc	0.045763955
121	0xbe07844f	-0.13234065
122	0xbc3dbee4	-0.011581156
123	0xbd79517e	-0.060868733
124	0x3c18a4bf	0.009316622
125	0xbda17943	-0.07884457
126	0x3d3e4e1d	0.046461213
127	0xbcd68457	-0.026186151
128	0x3cffcc5f	0.031225381
129	0x3e289494	0.16462928
130	0xbeb605ae	-0.35551208
131	0xbd0ccb39	-0.034373496
132	0xbdb643e9	-0.088996716
133	0xbd86e3c6	-0.06586413
134	0x3ec92fb6	0.39294213
135	0xbece4906	-0.40290087
136	0x3dbea208	0.09308249
137	0xbea3037f	-0.31838605
138	0x3d3ce18b	0.046113532
139	0xbe123b80	-0.1428051
140	0x3e408829	0.18801941
141	0xbdec4454	-0.1153647
142	0xbe08eb41	-0.13370992
143	0xbe290b44	-0.16508204
144	0xbeb46bdb	-0.35238537
145	0xbe3e1bbb	-0.18565266
146	0x3e57c887	0.21072589
147	0xbdfe990b	-0.124315344
148	0xbe167c1c	-0.14695781
149	0x3de2b4e8	0.110696614
150	0x3eac4964	0.33649743
151	0xbd3ed986	-0.046594165
152	0xbdfd5755	-0.12370173
153	0xbe1d6ea5	-0.15374239
154	0x3e0905e9	0.13381161
155	0x3e8697bf	0.26287648
156	0xbe17fd29	-0.14842667
157	0xbe9a8614	-0.30180418
158	0xbe9f9a29	-0.31172302
159	0xbca94f37	-0.020667655
160	0xbd8c3901	-0.0684681
161	0x3cd4ccb8	0.025976524
162	0xbd90a69f	-0.070630305
163	0xbe0f176c	-0.13973778
164	0x3e17a112	0.14807537
165	0x3e2c5d9f	0.16832589
166	0xbd61eae2	-0.055155642
167	0xbe489f67	-0.19592057
168	0xbde95058	-0.113922775
169	0xbd715d14	-0.058926657
170	0xbed2361c	-0.41056907
171	0xbd6a8d3c	-0.057263598
172	0xbe268fc4	-0.1626578
173	0xbe9d9658	-0.30778766
174	0x3c35b5a1	0.011090667
175	0x3e434e04	0.1907273
176	0xbe81f862	-0.25384814
177	0xbdb574a4	-0.08860138
178	0xbe349d3e	-0.17638108
179	0xbe3db527	-0.18526135
180	0x3e420588	0.18947423
181	0xbd3ebe74	-0.04656835
182	0xbedf2aa5	-0.43587223
183	0xbe1b4a92	-0.15165165
184	0x3c89377f	0.016750095
185	0xbd72f522	-0.059315808
186	0xbd97b111	-0.074068196
187	0xbe298163	-0.16553263
188	0x3eb265c2	0.3484326
189	0x3d5784a1	0.05261672
190	0x3e3d4bbf	0.18485926
191	0xbe05a412	-0.13050869
192	0x3e697f37	0.22802435
193	0x3e039954	0.12851459
194	0xbd50d45b	-0.050983768
195	0x3edbab18	0.42903972
196	0x3ca2c72c	0.019870363
197	0x3d479b20	0.048731923
198	0x3e794ace	0.24344942
199	0xbdf8581f	-0.12126183
200	0xbe80232c	-0.25026834
201	0xbe2c61ac	-0.16834134
202	0x3ecb4f20	0.39708805
203	0xbd87c492	-0.0662929
204	0xbd35acc7	-0.044354226
205	0x3d95eaa2	0.07320143
206	0xbd968684	-0.073498756
207	0x3dd81225	0.10550336
208	0x39de7ef2	0.0004243772
209	0x3ea0d651	0.3141351
210	0x3dbe9b19	0.09306926
211	0xbe895b0c	-0.26827276
212	0xbe33a963	-0.17545085
213	0x3edc7642	0.43058974
214	0x3cbf224a	0.02333178
215	0xbe84fa1b	-0.25972065
216	0x3e3690bd	0.17828651
217	0x3baa7a5f	0.005202576
218	0xbcdb1051	-0.026741179
219	0xbde086bc	-0.109631985
220	0x3d7c762b	0.06163613
221	0x3d3d2b0b	0.046183627
222	0xbefad4a6	-0.48990363
223	0xba65d110	-0.00087668095
224	0xbe904097	-0.28174278
225	0xbe135d4c	-0.14391059
226	0x3dec13b1	0.11527193
227	0x3dee7691	0.116437085
228	0xbe404f73	-0.18780307
229	0x3cd7b186	0.026329767
230	0x3e488527	0.19582044
231	0xbe2acf45	-0.1668063
232	0xbc99a15b	-0.018753698
233	0xbe618a3f	-0.22025393
234	0x3dd2c68a	0.102917746
235	0xbe95b26d	-0.2923769
236	0xbe119f2f	-0.1422088
237	0xbe8960b3	-0.26831588
238	0xbe655283	-0.22394757
239	0x3d310992	0.043222018
240	0xbea46794	-0.32110274
241	0x3d1e2717	0.038611498
242	0xbca38959	-0.019962953
243	0x3db0f944	0.08641294
244	0x3cbafad0	0.022824675
245	0xbcdf7461	-0.027277173
246	0xbe7f0647	-0.24904738
247	0xbe26e14d	-0.16296883
248	0xbdab6a11	-0.0836984
249	0x3be22a08	0.006901983
250	0x3d678347	0.05652168
251	0x3ba2fe05	0.004974129
252	0x3e88c837	0.26715252
253	0xbee13dfa	-0.43992597
254	0xbe78504c	-0.24249381
255	0xbe8aa7f6	-0.2708127

fc2.bias f4 [64]
0	0xbdb26675	-0.087109484
1	0xbcf4de51	-0.029891165
2	0x3c9ab33c	0.018884294
3	0xbdeb602a	-0.11492951
4	0x3e8addad	0.2712225
5	0x3bd7e5ce	0.006588674
6	0xbdcef66f	-0.10105597
7	0xbd8bc6ac	-0.06825003
8	0xbe034527	-0.12819348
9	0xbe5b24c1	-0.21400739
10	0xbd1dfd3e	-0.03857159
11	0xbcd7d7e2	-0.026348058
12	0xbd79606c	-0.06088297
13	0xbdf4c020	-0.119507074
14	0x3c7bf217	0.015377543
15	0x3cf26bce	0.02959242
16	0xbdd1fd44	-0.10253385
17	0xbcd7b2b6	-0.026330333
18	0xbe0a6f71	-0.13519074
19	0xbd35c075	-0.044372994
20	0xbc3541c1	-0.01106304
21	0x3cf44fc1	0.029823186
22	0xbe01f3f9	-0.12690724
23	0xbc6a4d5c	-0.0143006705
24	0xbe178094	-0.14795142
25	0xbca5cc0d	-0.0202389
26	0x3f07fa93	0.5311672
27	0x3e2cead6	0.16886458
28	0xbd0e0066	-0.03466835
29	0xbe23dbc9	-0.1600181
30	0x3a6e890a	0.00090994
31	0xbd6b2c51	-0.05741531
32	0xbdbfe127	-0.09369116
33	0x3d11c033	0.035583686
34	0x3b466494	0.0030272352
35	0xbdc1e241	-0.09466983
36	0xbdb71255	-0.089390434
37	0x3ea76101	0.32691196
38	0xbd27ea14	-0.04099472
39	0xbd161c24	-0.03664793
40	0x3d214de8	0.039380938
41	0xbda54441	-0.08069659
42	0xbd963c91	-0.07335771
43	0xbdbbe1e8	-0.091739476
44	0x3f08a6f6	0.5337976
45	0x3c386652	0.011254864
46	0x3bf24e98	0.007394623
47	0xbe265d8f	-0.16246627
48	0x3dcde10e	0.100526914
49	0xbdadb767	-0.08482247
50	0xbd3de071	-0.046356622
51	0xbdc4bd69	-0.096064396
52	0xbe12002c	-0.14257878
53	0x3ca4dffd	0.020126337
54	0x3ed0ece7	0.40805742
55	0x3cf5b20b	0.029992124
56	0xbd143dcb	-0.036191743
57	0xbd26e109	-0.040741954
58	0x3e645117	0.22296558
59	0xbddb446e	-0.10706411
60	0xbcfcd013	-0.030860936
61	0xbd305278	-0.0430474
62	0xbbe214cd	-0.0068994523
63	0xbcc92aa0	-0.024556458

fc3.weight f4 [4, 64]
0	0x3d47820b	0.048708003
1	0x3e08015b	0.13281767
2	0x3eea64fa	0.45780164
3	0x3c9a2ebe	0.018821117
4	0x3da319b7	0.07963889
5	0x3e032bea	0.1280972
6	0xbdbb19e4	-0.091357976
7	0xbdc969ff	-0.0983467
8	0xbe1a92ef	-0.15095113
9	0xbe1b022f	-0.15137552
10	0x3e1462f9	0.1449088
11	0x3e9e9e3c	0.30980098
12	0xbd837ff0	-0.064208865
13	0x3da72085	0.081604995
14	0x3d4e3f46	0.05035331
15	0x3d93b924	0.07213047
16	0xbd608c83	-0.054821502
17	0x3eb19641	0.34684947
18	0x3ebf9f5a	0.37426263
19	0xbe06d0c6	-0.13165578
20	0x3dc7fa8e	0.097645864
21	0x3ecbe2bd	0.39821425
22	0x3d44e015	0.048065264
23	0x3d51bd56	0.051205955
24	0xbec7314f	-0.38904807
25	0xbd250eae	-0.040297203
26	0x3e69bb42	0.2282534
27	0x3e458a0d	0.19290943
28	0xbcacbcfe	-0.021086212
29	0xbe24c493	-0.16090612
30	0x3d1fab1d	0.038981546
31	0x3dbc9d0c	0.09209642
32	0x3e48fb1e	0.19627044
33	0x3e0c6042	0.13708594
34	0x3db1bbe1	0.08678413
35	0xbd844069	-0.06457598
36	0xbe9cd205	-0.30628982
37	0x3e18a059	0.14904918
38	0xbe9d8b4d	-0.3077034
39	0x3e59e54b	0.21278875
40	0x3ed70a0e	0.4199986
41	0xbd95ab28	-0.07308036
42	0x3d8203e5	0.06348399
43	0xbd5cf8bd	-0.053948153
44	0x3e01343d	0.12617584
45	0x3cd9e80e	0.02659991
46	0x3ec632c1	0.38710597
47	0xbe2f6e05	-0.17131813
48	0x3eb25c02	0.3483582
49	0x3da93963	0.08262899
50	0xbe8bb60c	-0.27287328
51	0xbe46f989	-0.19431128
52	0x3d23fe91	0.040037695
53	0x3e3d6537	0.18495642
54	0x3e18728e	0.14887449
55	0x3ea43548	0.320719
56	0xbd899998	-0.06718749
57	0xbdda4000	-0.10656738
58	0x3dee69ae	0.116412506
59	0xbc903d51	-0.017607363
60	0xbe945791	-0.28973058
61	0x3d241e43	0.040067922
62	0x3ebff339	0.37490252
63	0x3e84cabe	0.2593593
64	0x3cdb4d25	0.026770184
65	0x3e972c05	0.29525772
66	0x3edbe9b1	0.4295173
67	0xbec9d983	-0.3942376
68	0x3dde4a2c	0.10853991
69	0x3e25695d	0.16153474
70	0xbccc4077	-0.024933083
71	0x3e886bcd	0.26644745
72	0xbd0aa18d	-0.033845473
73	0x3cf9bf0d	0.030486608
74	0xbe16ea0c	-0.1473772
75	0x3ee5b066	0.44861144
76	0x3e971e45	0.2951528
77	0x3d282e7d	0.04105996
78	0x3e321c71	0.17393662
79	0x3d9c88d7	0.07643288
80	0xbd86b347	-0.06577163
81	0x3e906820	0.2820444
82	0x3ea09a60	0.3136778
83	0xbded23bc	-0.115790814
84	0x3d8a8324	0.06763294
85	0xbef35fc1	-0.47533992
86	0xbf36f86b	-0.71472806
87	0x3d0a1aa0	0.033716798
88	0xbd7ede54	-0.062223747
89	0x3e9daa4d	0.30793992
90	0x3e46fb6c	0.19431847
91	0x3e3109e3	0.17288928
92	0x3e12c8c2	0.14334396
93	0xbdc0305e	-0.09384225
94	0xbe890bc3	-0.26766786
95	0xbdab99bf	-0.08378934
96	0xbf0df4f2	-0.5545188
97	0xbe0576e2	-0.13033631
98	0xbda3db75	-0.080008425
99	0x3baf2184	0.0053445715
100	0xbed27d1b	-0.41111073
101	0x3ddf161e	0.108928904
102	0x3d8a4efd	0.06753347
103	0xbe7a2085	-0.24426468
104	0x3ec4038b	0.38283953
105	0xbda32031	-0.079651244
106	0xbd7b3442	-0.061329134
107	0x3ea666de	0.32500356
108	0x3e460b33	0.1934021
109	0xbb9571c9	-0.0045606834
110	0xbe856564	-0.26053917
111	0x3c86d1f7	0.01645754
112	0x3ea12679	0.31474665
113	0x3d73216b	0.05935804
114	0x3d732b3d	0.059367407
115	0xbe18c10e	-0.14917395
116	0x3d8b4543	0.0680032
117	0x3e300c4c	0.17192191
118	0x3e031864	0.12802273
119	0x3e859bc3	0.260954
120	0x3f06cefe	0.52659595
121	0xbd734e1c	-0.059400663
122	0x3daa02c9	0.083013125
123	0x3eaad3c1	0.3336468
124	0x3d951f13	0.072813176
125	0x3da8f8c5	0.08250574
126	0x3e2eb577	0.17061411
127	0xbd05702a	-0.03257767
128	0x3c659af2	0.014013993
129	0x3debfaa3	0.115224145
130	0x3edce98c	0.43146932
131	0x3f0991de	0.537382
132	0x3e3a74ed	0.18208666
133	0x3eed8502	0.4639054
134	0xbed9cca0	-0.4253893
135	0x3e825ea5	0.25462833
136	0x3cd1bdce	0.025603201
137	0xbead195d	-0.33808413
138	0xbebc57cc	-0.36785734
139	0x3f012f83	0.5046312
140	0xbe8c2113	-0.27368984
141	0xbc32e820	-0.010919601
142	0x3ef68bf1	0.48153642
143	0x3d8b0f53	0.06790032
144	0xbe512b0d	-0.20426579
145	0xbdc80ccc	-0.09768066
146	0x3dbe160f	0.09281551
147	0xbea670f4	-0.3250805
148	0x3dda567f	0.10661029
149	0x3dd5224e	0.10406934
150	0x3ec51479	0.38492182
151	0x3d3e0631	0.046392623
152	0x3e535214	0.20636779
153	0x3e57f395	0.21089013
154	0x3e3078e3	0.17233615
155	0x3e0c5b4c	0.13706702
156	0x3e4da40c	0.2008211
157	0xbea9e8a6	-0.3318531
158	0x3e636645	0.22206981
159	0xbef6c5b4	-0.4819771
160	0xbe95373e	-0.2914371
161	0xbe9c0939	-0.30475786
162	0xbd2f018c	-0.042726085
163	0xbcaa00ef	-0.020752398
164	0xbe20aa64	-0.15689999
165	0x3e10e3c5	0.14149387
166	0x3e7ca72f	0.2467315
167	0xbe3d6a90	-0.18497682
168	0x3defb17e	0.11703776
169	0xbe8a75e0	-0.27043056
170	0xbf24ed82	-0.6442491
171	0x3ccd56f3	0.025065875
172	0x3e4f804f	0.2026379
173	0x3eb4d22a	0.35316592
174	0xbe774e3c	-0.24150938
175	0x3c372222	0.0111775715
176	0x3df8425f	0.12122034
177	0x3eafa588	0.34305978
178	0x3c30fc98	0.010802411
179	0x3e8fcaf5	0.2808453
180	0x3d1cad39	0.038251135
181	0x3ee86a9e	0.45393842
182	0x3d24e176	0.04025408
183	0x3e51b2e9	0.20478405
184	0xbdba59c0	-0.0909915
185	0x3e11c413	0.14234953
186	0x3e202f1d	0.15642972
187	0x3ea19c4e	0.31564564
188	0xbefef0ca	-0.49793082
189	0x3dab6175	0.08368198
190	0x3e356d48	0.17717469
191	0xbed5281c	-0.41632164
192	0xbd07bf08	-0.033141166
193	0x3f3842d1	0.71976954
194	0x3dd1cdf8	0.102443635
195	0x3e857b82	0.2607079
196	0x3e3d3799	0.1847824
197	0x3de1784e	0.110092744
198	0xbabea89f	-0.0014546103
199	0xbf16a083	-0.5883867
200	0xbdb0dbf4	-0.08635703
201	0xbf175a6d	-0.59122354
202	0xbef0199b	-0.46894535
203	0x3c07d14b	0.008289645
204	0x3eb8371b	0.35979542
205	0x3db523de	0.08844732
206	0x3e4afcfb	0.19823067
207	0xbe32f8d4	-0.17477733
208	0x3d40fa18	0.047113508
209	0x3eaf9c7b	0.34299073
210	0x3e548f07	0.20757686
211	0x3eceb25e	0.40370458
212	0xbd9ab13e	-0.075533375
213	0x3d4eab2a	0.050456204
214	0xbe600a54	-0.2187894
215	0x3e6fe3d8	0.23426759
216	0xbe72328c	-0.23652095
217	0x3efeb746	0.49749202
218	0x3e71e12c	0.23621053
219	0x3e2fc267	0.17164002
220	0xbcd3ee2a	-0.025870401
221	0xbd92ce6b	-0.07168277
222	0xbea7a788	-0.32745004
223	0x3e76967c	0.24080843
224	0xbb96e72d	-0.004605195
225	0x3df52954	0.11970773
226	0x3c6f48a9	0.014604726
227	0xbce4f036	-0.027946573
228	0xbe5bac7e	-0.2145252
229	0xbcb911ed	-0.022591555
230	0xbd9579be	-0.07298611
231	0x3eceb6a0	0.40373707
232	0x3ea8af22	0.32946116
233	0xbd8a74b4	-0.067605406
234	0x3dc2c84c	0.0951086
235	0xbe8be565	-0.27323452
236	0x3e5ed4d5	0.21760876
237	0xbc551f54	-0.0130079575
238	0xbc8dae43	-0.017295009
239	0xbe56d57a	-0.20979872
240	0x3def127c	0.116734475
241	0xbe6bf688	-0.23043263
242	0x3e07b05d	0.13250871
243	0xbba18fb2	-0.00493046
244	0x3ef7c196	0.48389882
245	0xbe8a628f	-0.2702832
246	0x3de0497b	0.10951515
247	0x3e97cae9	0.29646996
248	0x3d0f01fa	0.034913994
249	0xbd14fce0	-0.036373973
250	0x3d9f50be	0.07779072
251	0xbeaf1eb6	-0.34203118
252	0xbda40e10	-0.08010495
253	0x3e6244f7	0.2209662
254	0x3e07330e	0.1320307
255	0x3e7e4563	0.24831156

fc3.bias f4 [4]
0	0x3ec2261c	0.379197
1	0x3e804bf6	0.25057954
2	0x3ebcb222	0.36854655
3	0x3e96de92	0.29466683
